src/modelo/02_modular.onnx (onnx, 2277 bytes, 6 tensors)

linear_layer_stack.0.weight f4 [10, 5]
000000 7a fa 14 bf e7 6c 53 c0 27 35 ac bf f8 98 f9 40
       -0.58194697 -3.3035219 -1.3453721 7.799923
000010 29 df 8a c0 a0 04 36 c0 a5 e7 74 bf 47 9f d2 40
       -4.339741 -2.8440323 -0.9566596 6.581943
000020 2b f0 09 c0 46 5a 0e c0 c8 03 73 3e 02 37 96 bd
       -2.1552837 -2.2242599 0.23731911 -0.07334711
000030 77 ae ad be 1b 31 94 be e9 53 88 bd ea 81 cd be
       -0.3392217 -0.28943714 -0.066566296 -0.4013818
000040 e1 63 b5 be 48 6a ea bd e0 4d 1e 3d 8a 7f b7 be
       -0.35427764 -0.11446053 0.038648486 -0.35839492
000050 e0 ed a4 bd d0 69 56 bf 2f 98 36 bf 22 23 85 bf
       -0.080531836 -0.8375521 -0.71325964 -1.0401347
000060 65 5b 45 3f 77 c3 51 40 04 01 b0 bf 7a 09 09 40
       0.7709258 3.2775552 -1.375031 2.1412034
000070 12 30 c9 bf 7b 28 86 c0 2f 3c 16 c0 44 e5 0e c0
       -1.5717795 -4.1924415 -2.3474233 -2.2327433
000080 6b 0e b4 bf 72 02 16 c0 9b 97 cd 40 2a db dc bf
       -1.40669 -2.3438993 6.4247565 -1.7254384
000090 85 9c fc 40 49 e2 16 bf a3 5c 44 c0 37 56 8f c0
       7.8941064 -0.58939034 -3.068154 -4.4792743
0000a0 1e cb d5 3e 26 83 4f bf 2b 47 d8 3f 8f 87 33 3f
       0.4175653 -0.8105949 1.6896719 0.7012872
0000b0 e4 d3 55 be 21 d1 7a 40 11 eb bf bf 2b 3c 9a bf
       -0.20881611 3.9190142 -1.4993612 -1.2049612
0000c0 7f 5a c7 bf bb f9 9d be
       -1.5574492 -0.30854592

linear_layer_stack.0.bias f4 [10]
000000 3d 7d a9 3f c1 91 30 3f c6 a4 a9 bd 40 ca 8c bd
       1.3241345 0.689724 -0.08283381 -0.068745136
000010 0a 71 55 bf fa 36 d6 3f 83 a3 3c 3f 94 7d 35 3f
       -0.8337561 1.6735528 0.73687 0.7089474
000020 14 48 7f bf c6 ef 14 3f
       -0.9971936 0.58178365

linear_layer_stack.2.weight f4 [10, 10]
000000 a4 a7 eb bf c3 9e fd bf ef 46 11 be 7e e4 93 be
       -1.8410535 -1.9814075 -0.14187215 -0.28885263
000010 ca e5 3b be 01 7e 10 40 a1 ec 04 c0 97 a1 f3 3f
       -0.18349376 2.2576907 -2.0769427 1.9033688
000020 61 a0 87 bf 02 bc b2 3f f6 58 65 be 72 fd 94 3d
       -1.0595819 1.3963625 -0.22397217 0.07274903
000030 b8 7a 95 3d 74 20 db bd 80 2c 0d bb 64 45 6b be
       0.07298797 -0.10699549 -0.0021541417 -0.22975689
000040 42 46 44 be 64 19 89 bd 99 da 8c 3d 18 02 3e be
       -0.19167426 -0.06694296 0.06877632 -0.18555486
000050 07 e9 17 40 b6 64 1f 3f 48 c1 52 3e 9e 0a 46 3e
       2.3735979 0.6226305 0.20581543 0.19339988
000060 67 d8 94 be ae f5 25 3e 23 a0 04 bf d4 25 be bf
       -0.29071352 0.16207 -0.5180685 -1.4855294
000070 bf 4c d8 be 08 b0 16 c0 55 50 14 40 5d 88 3f c0
       -0.42246053 -2.354494 2.317403 -2.992698
000080 db 5c 4b 3d 6a ad 4c 3e 1b 17 4b be 06 e4 84 bf
       0.0496491 0.19988027 -0.19833033 -1.0382087
000090 5a 36 d4 3f d1 75 0d c0 a4 f5 39 3f 2b 68 23 bf
       1.6579087 -2.210316 0.7264044 -0.6383082
0000a0 62 50 37 3e fe 7d 42 bf 58 81 c5 bd 00 ef 14 bd
       0.17901757 -0.759735 -0.09643811 -0.03636074
0000b0 7a 01 21 be ea c0 00 c0 22 43 65 bf 22 f6 27 40
       -0.1572322 -2.0117745 -0.8955556 2.6243978
0000c0 37 0d b3 bf d5 19 de bf cc 69 7e be 7d 8a 03 3e
       -1.3988408 -1.7351633 -0.24845046 0.12845798
0000d0 c0 2d f4 3d c2 66 6a be 54 08 99 be f9 de 5e be
       0.119227886 -0.22890761 -0.29889166 -0.21764745
0000e0 fd ed 12 3e 12 c9 0c be 40 90 b6 3d 8f 62 22 be
       0.14348598 -0.13748577 0.08914232 -0.1585791
0000f0 bc 60 12 c0 14 35 34 40 49 e8 9a 3e 84 cf e9 bd
       -2.2871542 2.8157396 0.30255345 -0.114165336
000100 80 e8 e0 3c ac 9c 98 bd 02 a7 e8 be c1 fe fe 3e
       0.027454615 -0.07451758 -0.45439917 0.49803737
000110 76 6b a1 3e fd 5f 9f bf 06 4f b9 bf 49 1a c1 3c
       0.315273 -1.2451168 -1.4477241 0.023572104
000120 9a f1 fe 3d ac 92 7b be e0 c5 e6 3e 8c 6e 7a bf
       0.124484256 -0.2456767 0.45072842 -0.9782493
000130 0c c0 21 40 98 59 1c bf 0d 8d 17 bf 44 fb 7a 3e
       2.5273466 -0.6107421 -0.591996 0.24509913
000140 ba bc b1 be 7a 10 ee bd df db ba bd 6a 5f 74 3e
       -0.347143 -0.116242364 -0.09123968 0.23864523
000150 81 04 51 3e 8f 90 de bd bf b2 a5 3e 8d 23 44 3e
       0.20411874 -0.10867416 0.32362935 0.19154187
000160 6c a5 86 3d 27 e0 9e be d1 ed 14 3f bc 0b 82 be
       0.065745205 -0.3103039 0.5817538 -0.25399578
000170 47 da a4 3d 00 8f de 3d d2 19 2c 3e 5f 7a 57 bf
       0.080494456 0.10867119 0.16806725 -0.841711
000180 bb 32 31 bf 09 f6 f9 3a b6 3c c5 be dd b9 cc 3f
       -0.69218034 0.0019070517 -0.3852288 1.5994221

linear_layer_stack.2.bias f4 [10]
000000 6d c2 89 3f 8d c7 8c be ed 83 af bf 8d 35 a2 3f
       1.0762459 -0.27495995 -1.3712136 1.2672592
000010 bb 4d 1e 40 0f db b6 be 74 5f 94 3f 50 f9 0c be
       2.4734943 -0.35714003 1.159163 -0.1376698
000020 fc ae 2e be 7e e0 43 3d
       -0.17058939 0.047821514

linear_layer_stack.4.weight f4 [5, 10]
000000 43 47 29 40 69 5a 8b 3e 8d ce d4 be 1e dc 71 3f
       2.6449745 0.27217415 -0.41563836 0.944765
000010 50 b0 2d c0 b3 c8 5d be 3c 76 ab bf f2 01 1b be
       -2.7138863 -0.21658592 -1.3395457 -0.15137461
000020 f3 7d 92 3e b8 94 e4 3f 31 a6 84 3f fb 52 8b 3e
       0.28611717 1.7857885 1.0363218 0.27211747
000030 3b 52 11 bf ec fb aa bf 73 c0 43 40 11 7f 5a 3e
       -0.567661 -1.335813 3.0586212 0.21337534
000040 e8 ba 49 be 94 87 20 bf 0a fa 0a 3e 2f 20 45 3d
       -0.19700205 -0.62706876 0.13571945 0.048126396
000050 98 e0 05 3f ab 8f 8f bd 25 2f 30 40 77 43 33 c0
       0.5229583 -0.07009824 2.7528775 -2.8009927
000060 6a 8f e7 bf 65 00 1f be 74 7b 3b 40 b9 1e bb be
       -1.8090641 -0.15527494 2.92941 -0.36546877
000070 ad 32 e4 be 45 86 ff be 42 92 18 c0 f8 14 25 3e
       -0.44569913 -0.49907127 -2.3839269 0.1612128
000080 be 2f f4 3f 01 02 52 3f 68 fb 18 40 09 fb 1b be
       1.907707 0.8203431 2.3903446 -0.15232481
000090 fe 04 f3 bf 58 4e aa bf 26 ce 9f be b8 dd b7 be
       -1.8985898 -1.3305159 -0.31211966 -0.35911345
0000a0 61 3d 0f c0 46 1c 13 3e f5 ea 48 c0 ac 04 fd 3f
       -2.2381213 0.14366254 -3.1393406 1.9767051
0000b0 1b 75 59 bf 98 b8 aa 3e b0 65 ba be eb d9 19 40
       -0.84944314 0.3334396 -0.36405706 2.4039257
0000c0 e6 0b 47 bc 17 a6 57 bf
       -0.012148833 -0.8423781

linear_layer_stack.4.bias f4 [5]
000000 c0 29 db be dd 0a f5 be 81 49 97 bf 09 2d 76 3e
       -0.4280529 -0.4785985 -1.1819307 0.24040617
000010 ca 7b f5 3f
       1.9178402
